server/savedmodel.pt (torch, 139615 bytes, 6 tensors)

conv1.weight f4 [32, 1, 5, 5]
0	0xbd0cc320	-0.034365773
1	0x3e0dc2c1	0.13843824
2	0x3dd7cb6a	0.10536845
3	0x3d07e23e	0.033174746
4	0x3e775e02	0.24156955
5	0x3e418493	0.1889823
6	0x3e62369a	0.22091141
7	0xbc9158dc	-0.017742567
8	0x3e323cbd	0.17405982
9	0x3e366f1c	0.17815822
10	0x3cd76574	0.026293494
11	0xbdd05b09	-0.101736136
12	0xbc151b26	-0.009100711
13	0x3d21e3ad	0.03952377
14	0xbea7d2ce	-0.3277802
15	0xbdadceb3	-0.0848669
16	0x3def0227	0.116703324
17	0xbd77a371	-0.060458604
18	0xbd6a45d9	-0.05719552
19	0xbe930f4f	-0.28722617
20	0x3ceb385c	0.028713398
21	0xbdbdf277	-0.09274762
22	0xbe11ac68	-0.14225924
23	0xbe50ad7c	-0.20378679
24	0xbdeb9365	-0.11502723
25	0x3e0654cc	0.13118285
26	0x3e040573	0.12892704
27	0xbdd07eec	-0.101804584
28	0xbe2788ad	-0.16360731
29	0xbe10c3c8	-0.14137185
30	0x3e5beb0e	0.21476385
31	0xbd863d63	-0.06554677
32	0xbcc2b49d	-0.023767764
33	0xbe9095a4	-0.28239167
34	0xbe8f54cd	-0.27994385
35	0x3e06c0ff	0.1315956
36	0x3dd87fef	0.105712764
37	0x3e025478	0.12727535
38	0x3d6914d9	0.056904647
39	0xbe43a702	-0.19106677
40	0x3cf59e6d	0.02998277
41	0xbb298f01	-0.002587259
42	0x3dcacb13	0.099020146
43	0xbd7674dd	-0.060170043
44	0xbdefd3b6	-0.117103025
45	0x3d1a7464	0.037708655
46	0x3df7d6a5	0.12101487
47	0x3dfa13df	0.12210821
48	0x3e3ba167	0.18323289
49	0xbdaaf3be	-0.083472714
50	0xbd8214a3	-0.063515924
51	0xbe6eba98	-0.23313367
52	0xbded0bb3	-0.11574497
53	0x3ca9e082	0.020736936
54	0xbd34c226	-0.044130467
55	0xbe721658	-0.23641336
56	0xbd6f3e7c	-0.0584092
57	0xbe19f758	-0.1503576
58	0xbd54e2cb	-0.0519741
59	0xbcfc6293	-0.030808723
60	0xbe955116	-0.29163426
61	0xba7fbd72	-0.00097557076
62	0x3e7cec90	0.24699616
63	0x3e019dfd	0.12657924
64	0x3cce25d7	0.025164528
65	0x3d4a7064	0.04942359
66	0x3e8adacf	0.27120063
67	0x3e83712f	0.2567229
68	0xbc76f022	-0.015071901
69	0x3da03104	0.07821849
70	0x3e88b2e2	0.26698977
71	0x3cfd6ba9	0.030935125
72	0xbdc98e54	-0.098416
73	0xbe82cb46	-0.2554571
74	0xbe0ee8c6	-0.13955984
75	0xbc00e6f2	-0.007867562
76	0xbe49d0cb	-0.19708554
77	0xbe78f7e1	-0.24313308
78	0xbe90d8df	-0.2829046
79	0xbe1fd650	-0.15609097
80	0x3da16241	0.078800686
81	0x3d1b0275	0.03784414
82	0xbe00b61d	-0.1256947
83	0x3e17df29	0.14831223
84	0xbe1fb868	-0.15597689
85	0x3e0886e7	0.13332711
86	0x3e401349	0.18757357
87	0x3e55f6ae	0.20894882
88	0xbd9b19b5	-0.075732626
89	0x3d52875c	0.05139862
90	0x3d835bef	0.06414019
91	0x3e594b47	0.21220122
92	0x3e39b9a2	0.1813722
93	0x3e65b2f7	0.22431551
94	0xbdccb1f0	-0.099948764
95	0xbea13995	-0.31489244
96	0xbe9af0e9	-0.30261925
97	0xbda6c562	-0.081431165
98	0xbc1bf248	-0.009518214
99	0x3d12bef3	0.035826635
100	0x3cef6355	0.02922217
101	0xbe054cb7	-0.13017546
102	0x3e025d6c	0.1273095
103	0xbe0a13fe	-0.13484189
104	0xbcd425b9	-0.025896894
105	0x3d152443	0.036411535
106	0x3e3ff198	0.18744504
107	0x3ea2fe41	0.31834605
108	0x3e28178d	0.16415234
109	0x3e0a9dfd	0.1353683
110	0xbdd8092f	-0.10548627
111	0xbe13c106	-0.14429101
112	0x3d446895	0.0479513
113	0x3d0c2c44	0.034221902
114	0x3e92c2f4	0.28664362
115	0xbeaa3cc2	-0.3324948
116	0xbea30506	-0.3183977
117	0xbc87d486	-0.016580831
118	0xbdb74562	-0.089487806
119	0xbe049ac3	-0.12949662
120	0x3da67f96	0.08129804
121	0xbd18f0b8	-0.037338942
122	0xbec19ab9	-0.37813357
123	0xbe2bb379	-0.16767682
124	0xbeba3d90	-0.36375093
125	0xbe668e0a	-0.22515121
126	0xbce1b913	-0.02755407
127	0xbe5ff44f	-0.2187054
128	0x3b2bf1db	0.0026236686
129	0xbddb1353	-0.10697045
130	0xbe96d3b0	-0.2945838
131	0xbe1a53a9	-0.15070976
132	0xbdd8fc57	-0.10595005
133	0xbe8c1c86	-0.27365512
134	0xbbe9566e	-0.007120899
135	0xbe55ee21	-0.2089162
136	0xbd9b1cfc	-0.07573888
137	0xbe221ad6	-0.1583055
138	0x3e11ac82	0.14225963
139	0xbdac6340	-0.08417368
140	0xbd9cabf2	-0.076499835
141	0x3cd9da6c	0.02659341
142	0x3e281ce5	0.16417272
143	0xbd844ae7	-0.06459599
144	0xbbd1df0f	-0.0064047645
145	0x3e9cd7c0	0.30633354
146	0x3e250054	0.16113406
147	0xbbb346d0	-0.005471088
148	0x3e708956	0.2348989
149	0x3e3a7f70	0.18212676
150	0x3e80800c	0.25097692
151	0x3d7469de	0.059671275
152	0x3e65bae0	0.22434568
153	0x3e114456	0.14186224
154	0xbd3c81dd	-0.046022285
155	0xbd64bb80	-0.055842876
156	0xbb77587d	-0.0037741952
157	0x3e4397a6	0.19100818
158	0x3dee9e20	0.11651254
159	0xbb6de22c	-0.003629814
160	0xbe82ba8a	-0.25532943
161	0x3d8c697e	0.068560585
162	0x3d6b33ee	0.05742257
163	0x3d87a6b2	0.066235915
164	0xbe913c1c	-0.28366172
165	0xbeb5acd2	-0.35483414
166	0x3df720e1	0.12066818
167	0x3e072b5c	0.13200134
168	0x3db3ab9a	0.08772965
169	0x3d9fee8d	0.07809172
170	0xbea11bc4	-0.31466496
171	0x3dc71e6d	0.097226
172	0x3b929bbd	0.004474132
173	0x3e1c7d5b	0.15282194
174	0x3e1bd4cb	0.15217893
175	0x39bdf7c7	0.00036233498
176	0xbe0cc227	-0.13745938
177	0xbb82888f	-0.003983564
178	0x3d2c580f	0.042076167
179	0x3ddf1f7d	0.10894678
180	0xbe559209	-0.20856489
181	0x3d1b4695	0.03790911
182	0x3e13e86d	0.14444132
183	0xbd615e42	-0.055021532
184	0xbe2dda42	-0.1697779
185	0xbe022aec	-0.12711686
186	0x3dc9cf97	0.09854048
187	0x3e76e602	0.24111179
188	0x3e4d70ad	0.20062514
189	0x3c78bea2	0.015182169
190	0x3e87e428	0.26541257
191	0x3e187b8d	0.14890881
192	0xbce826b2	-0.028338764
193	0x3cdaa2b8	0.026688918
194	0xbdd22a13	-0.10261931
195	0x3cdaaf79	0.026695
196	0xbe549841	-0.20761205
197	0xbd9312a5	-0.071812905
198	0x3e6dbc5b	0.23216383
199	0x3c344538	0.011002831
200	0x3e511ae2	0.20420411
201	0x3e0a6adf	0.1351733
202	0x3e9baabd	0.304037
203	0x3e23fdaa	0.16014734
204	0x3cf88784	0.030338056
205	0xbe299fe1	-0.16564895
206	0xbe62ec1b	-0.2216038
207	0xbec30ab3	-0.380941
208	0xbe919bac	-0.2843908
209	0xbe9bc91a	-0.30426866
210	0xbe8a5a27	-0.27021906
211	0xbe97c395	-0.29641405
212	0xbe04e8fa	-0.12979499
213	0xbe314a32	-0.1731346
214	0xbd45f63f	-0.04833054
215	0xbda56d7d	-0.08077524
216	0x3db922b0	0.09039819
217	0x3e4cea44	0.2001124
218	0x3dfa2509	0.12214095
219	0x3c68b285	0.014202719
220	0x3e989e92	0.2980848
221	0x3cfefb9e	0.03112584
222	0xbcf51ec0	-0.02992189
223	0x3dede139	0.116152234
224	0x3d56717c	0.05235432
225	0x3dc5145d	0.096230246
226	0xbd825910	-0.063646436
227	0x3e0a9c98	0.13536298
228	0xbe1f7a49	-0.15573992
229	0xbd8c1a02	-0.06840898
230	0xbdfb01f2	-0.122562304
231	0xbe34c1fd	-0.17652126
232	0xbea33f50	-0.3188424
233	0xbe1dfd03	-0.15428548
234	0xbe3af2be	-0.18256661
235	0x3e9723f1	0.2951961
236	0x3cf1d873	0.029522156
237	0xbd65ec08	-0.0561333
238	0xbdba8031	-0.09106482
239	0xbe9c7909	-0.30561092
240	0x3e49751f	0.19673584
241	0x3c2d96f5	0.010595073
242	0x3e0e7106	0.13910303
243	0xbdafa277	-0.085759096
244	0xbd621ee3	-0.055205237
245	0xbdbe6094	-0.092957646
246	0x3e36654c	0.17812079
247	0x3e2593ab	0.16169612
248	0x3e22c9a0	0.15897226
249	0x3d43a997	0.047769155
250	0xbc9a7daf	-0.018858759
251	0x3c5e6894	0.013574738
252	0xbcdd3e1a	-0.027007151
253	0xbe1bea09	-0.15225996
254	0x3e797122	0.24359563
255	0x3e1cf444	0.15327555

conv1.bias f4 [32]
0	0xbdbeba9e	-0.09312938
1	0xbcfdf7b0	-0.031001896
2	0x3ca4f1c0	0.020134807
3	0xbd401676	-0.04689642
4	0xbdc04bbd	-0.09389446
5	0xbe038978	-0.12845409
6	0xbec7db95	-0.39034715
7	0xbdf8e4fe	-0.12153052
8	0xbd24442a	-0.04010407
9	0xbe22d397	-0.15901028
10	0x3d65c456	0.056095444
11	0x3d8ee383	0.06976988
12	0x3da9850b	0.08277329
13	0xbe04c0ea	-0.12964216
14	0xbe67d096	-0.22638163
15	0xbe04e239	-0.12976922
16	0xbe466af7	-0.19376741
17	0xbda089e4	-0.078388005
18	0xbe0ced5f	-0.13762425
19	0x3d3b30e9	0.04570094
20	0x3db43ad5	0.08800284
21	0xbda2b3fd	-0.07944486
22	0xbd675fe8	-0.056487948
23	0x3d183c39	0.037166808
24	0xbe0abd8a	-0.13548866
25	0xbd41e1f6	-0.047334634
26	0xbe06e484	-0.1317311
27	0xbdb121d3	-0.086490296
28	0xbdffb8e2	-0.124864355
29	0xbe21e677	-0.15810572
30	0x3cb53aef	0.022122828
31	0xbe82f1aa	-0.25575

conv2.weight f4 [64, 32, 1, 1]
0	0x3da53b6a	0.08067973
1	0x3dde88c3	0.10865929
2	0xbdab259f	-0.08356785
3	0x3dfb53a8	0.122718155
4	0x3da62759	0.08112974
5	0x3d90bceb	0.07067283
6	0xbcdd3062	-0.02700061
7	0xbe83d2f6	-0.25746888
8	0x3e58c975	0.211706
9	0x3e2e1fc1	0.170043
10	0x3e212d07	0.15739833
11	0xbbf3e572	-0.0074431235
12	0x3e423b58	0.1896795
13	0x3dd13760	0.1021564
14	0xbe97eb00	-0.29671478
15	0xbd1aca1f	-0.037790414
16	0x3c9e8319	0.019349622
17	0xbe87a087	-0.2648966
18	0xbe334751	-0.17507674
19	0x3d0c473b	0.03424762
20	0x3e2024f4	0.15639096
21	0x3e7dbd2e	0.24779198
22	0xbc6bfdd0	-0.014403775
23	0xbd467f8c	-0.048461482
24	0x3d63b0ab	0.055588406
25	0xbe14d2f3	-0.14533596
26	0xbd9ac2a1	-0.07556654
27	0x3e17c7fa	0.14822379
28	0xbd913c8b	-0.07091626
29	0x3e132c46	0.14372358
30	0xbe171075	-0.14752372
31	0xbda3097d	-0.07960794
32	0x3dd427d7	0.10359161
33	0xbe068536	-0.13136753
34	0xbded00dc	-0.115724295
35	0x3e1d122c	0.15338963
36	0x3e34e117	0.1766399
37	0x3e635825	0.22201593
38	0x3c32d4eb	0.010915021
39	0xbe02527d	-0.1272678
40	0x3eb00bbe	0.3438396
41	0xbc9835ed	-0.018580401
42	0xbbea8351	-0.0071567674
43	0x3da5fbea	0.081046894
44	0xbc5af3ed	-0.0133638205
45	0x3e4cceb3	0.20000724
46	0x3d9f8bca	0.077903345
47	0xbe3b55e6	-0.18294486
48	0x3c00a7ab	0.007852475
49	0xbdc6e544	-0.09711698
50	0x3df0edce	0.11764108
51	0x3e86221e	0.26197904
52	0x3e442b26	0.19157085
53	0x3e85fb48	0.26168275
54	0xbe3f8b84	-0.18705565
55	0x3e535b0c	0.206402
56	0xbdad9498	-0.08475608
57	0xbcce3502	-0.02517176
58	0x3c8c47c7	0.01712407
59	0x3d6f35f4	0.058401063
60	0xbd1d2795	-0.038367826
61	0xbcbe1cb2	-0.023207042
62	0xbe6f4f13	-0.23370008
63	0xbcb52408	-0.022111908
64	0x3d8319a0	0.06401372
65	0xbd282d2a	-0.041058697
66	0x3e08c136	0.13354954
67	0x3e7144c7	0.23561393
68	0x3c890780	0.01672721
69	0x3d3bcca7	0.04584947
70	0x3e1f8c52	0.15580872
71	0x3e39f1b4	0.18158609
72	0xbdc60de8	-0.09670621
73	0xbdea7281	-0.11447621
74	0xbe51a8b6	-0.20474514
75	0x3b91d654	0.0044505987
76	0xbdc75456	-0.09732883
77	0xbdd10add	-0.1020715
78	0x3e6e8bf3	0.23295574
79	0x3e0e0284	0.13868147
80	0x3c846c09	0.016164796
81	0xbd1132ae	-0.035448723
82	0x3e2deeef	0.16985677
83	0xbca6e925	-0.020374844
84	0x3d79ad3f	0.060956236
85	0xbd6116e4	-0.05495347
86	0xbd92b84a	-0.071640566
87	0xbde68771	-0.11256302
88	0xbdd6aa93	-0.10481753
89	0xbdde61d8	-0.10858506
90	0x3dc950e7	0.09829884
91	0x3c679c0f	0.014136328
92	0xbd2e53b2	-0.042560287
93	0xbcb77d54	-0.022398628
94	0xbdd35a9d	-0.103200175
95	0xbdf010d3	-0.11721959
96	0xbeb8dffc	-0.36108387
97	0x3db8b11a	0.090181544
98	0x3e0f533d	0.13996597
99	0x3e237610	0.15963006
100	0xbe416731	-0.1888702
101	0x3deea4bc	0.11652514
102	0xbe035e7f	-0.12829016
103	0x3ccf7cc1	0.025328042
104	0x3c8221a2	0.015885178
105	0x3e7dc830	0.24783397
106	0x3df33d83	0.11876967
107	0xbd72b55d	-0.059254993
108	0x3e6fe19b	0.23425905
109	0xbe9656d5	-0.29363123
110	0x3c89240c	0.016740821
111	0xbe0a9783	-0.1353436
112	0x3ddb564b	0.107098185
113	0x3da92014	0.082580715
114	0x3d894422	0.067024484
115	0xbe8d60b2	-0.27612835
116	0xbdd3248b	-0.103097044
117	0xbded457c	-0.11585519
118	0xbcba2a85	-0.022725353
119	0xbeb1601e	-0.34643644
120	0x3cbdf381	0.0231874
121	0x3c9c74d0	0.01909867
122	0x3d45fabd	0.048334826
123	0xbe31ee47	-0.17376052
124	0x3eb8586b	0.36004958
125	0xbbfa543f	-0.0076394374
126	0xbe595496	-0.21223673
127	0xbe21ed1d	-0.15813108
128	0x3cb1f09f	0.021721182
129	0x3da24dc6	0.0792499
130	0x3d960404	0.07324985
131	0xbe77f87e	-0.24215886
132	0xbe192bea	-0.14958158
133	0x3e82076f	0.25396296
134	0x3cf39749	0.029735224
135	0xbd3a152d	-0.04543035
136	0x3e9cea3a	0.3064745
137	0x3e480b39	0.19535531
138	0xbcb3ea82	-0.021962408
139	0xbe140e6f	-0.14458631
140	0x3c02d1d3	0.007984596
141	0x3da852f9	0.08218951
142	0xbe9185c3	-0.28422365
143	0xbdfc0a2e	-0.12306629
144	0x3d5354f6	0.051594697
145	0xbdfb878c	-0.12281713
146	0x3d05ef88	0.032699138
147	0xbc3ebe61	-0.01164207
148	0xbd23a4e8	-0.03995219
149	0x3d9ae790	0.07563698
150	0xbddf894b	-0.109148584
151	0xbd89cba3	-0.06728294
152	0xbe1d794c	-0.15378302
153	0x3e1be453	0.15223818
154	0xbe683a2f	-0.22678445
155	0x3e6ae60c	0.22939318
156	0x3e02dc86	0.12779436
157	0xbdfe75df	-0.12424826
158	0xbeaeaa5e	-0.34114355
159	0x3dcef233	0.101047896
160	0x3da3358b	0.07969197
161	0x3de991d2	0.11404766
162	0xbe02ba9b	-0.12766497
163	0xbd8d966a	-0.06913455
164	0xbddb35d3	-0.107036255
165	0x3cd67dd4	0.026183046
166	0xbac35e17	-0.001490536
167	0x3c68b96f	0.014204367
168	0x3df11762	0.11772038
169	0xbc781f71	-0.015144215
170	0x3d1927b5	0.037391383
171	0x3dd5d451	0.10440887
172	0xbde4c677	-0.11170667
173	0x3e0d6702	0.13808826
174	0xbe386562	-0.18007424
175	0xbdb489d3	-0.088153504
176	0x3de90a72	0.113789454
177	0x3dcbb637	0.09946864
178	0xbda9c355	-0.0828921
179	0x3df9b3dc	0.121925086
180	0x3c8dcc34	0.017309286
181	0xbe11536f	-0.14191984
182	0xbdda6cd4	-0.106652886
183	0x3df5cc54	0.12001863
184	0xbe074310	-0.13209176
185	0x3e1ca89a	0.15298691
186	0xbdd7666c	-0.10517582
187	0xbe67254f	-0.22572826
188	0x3d8369e1	0.06416679
189	0x3c794616	0.015214464
190	0x3e1efda8	0.1552645
191	0x3df254aa	0.11832555
192	0x3d399f44	0.045317903
193	0x3e7c57e2	0.246429
194	0xbaf777fa	-0.001888036
195	0xbd5e1317	-0.054217424
196	0xbdb22983	-0.08699324
197	0xbe7b8022	-0.24560598
198	0xbe402eb3	-0.18767814
199	0xbdf21b65	-0.11821631
200	0xbd5a20ca	-0.053253926
201	0x3e37eaa8	0.17960608
202	0x3e50a187	0.20374118
203	0xbde157b6	-0.11003058
204	0xbe53c6c1	-0.20681287
205	0x3e04b347	0.12959014
206	0xbe452fb3	-0.19256477
207	0x3e02cd5c	0.12773651
208	0x3d0256fe	0.031821243
209	0x3e2ab924	0.16672188
210	0xbd891095	-0.06692616
211	0x3dd393c7	0.10330921
212	0xbd44be84	-0.048033252
213	0xbc875767	-0.016521169
214	0xbe360c42	-0.17778113
215	0x3db65f50	0.08904898
216	0x3e98c0e8	0.29834676
217	0xbd5386ba	-0.051642157
218	0x3e4fc2aa	0.20289102
219	0xbdcdb389	-0.10044009
220	0xbdc16bee	-0.09444414
221	0xbd926ba3	-0.07149436
222	0x3c0c4ff8	0.008563988
223	0xbebbb5e3	-0.36662206
224	0xbde86461	-0.11347271
225	0x3dcf5495	0.101235546
226	0xbc82fa82	-0.015988592
227	0x3e610439	0.21974267
228	0x3da04c4a	0.07827051
229	0xbd379b14	-0.04482563
230	0x3d1a259f	0.037633535
231	0xbde3b88d	-0.11119185
232	0x3dc4e8f2	0.09614743
233	0x3dc683d3	0.09693112
234	0x3d4c2a71	0.049845163
235	0xbb4012ca	-0.0029308074
236	0xbae4bd24	-0.0017451388
237	0xbe0264b7	-0.12733732
238	0x3e481e49	0.19542803
239	0xbe434655	-0.19069798
240	0x3da1b257	0.07895344
241	0x3c3fcd4d	0.011706662
242	0xbd53d02d	-0.051712204
243	0xbe4cce5b	-0.20000593
244	0xbe0264f5	-0.12733825
245	0xbd8649e4	-0.06557062
246	0xbe1317d4	-0.14364558
247	0xbd040f3d	-0.032241095
248	0x3951d1a1	0.00020009886
249	0x3e3176a9	0.17330422
250	0x3dbad650	0.09122908
251	0x3e550f76	0.20806679
252	0x3d75c853	0.060005497
253	0xbd9219a8	-0.071338
254	0x3e6d015d	0.23145051
255	0xbdc5cb25	-0.09657887

conv2.bias f4 [64]
0	0x3e02c1b9	0.12769212
1	0xbd00bcc8	-0.031430036
2	0x3dbc42d1	0.09192432
3	0x3d3886a6	0.045050286
4	0x3de5fc9b	0.11229821
5	0xbddf2238	-0.108951986
6	0x3de4a768	0.11164743
7	0x3c271783	0.010198477
8	0x3dddb093	0.108246945
9	0x3d8068b2	0.06269969
10	0x3e2985ea	0.1655499
11	0xbe1e346b	-0.15449683
12	0xbe27f20e	-0.1640093
13	0xbcc1378e	-0.02358606
14	0xbdab0f2b	-0.083525024
15	0x3db5ecbf	0.08883046
16	0x3d806a17	0.06270235
17	0x3b8332aa	0.0040038424
18	0x3e1f5c2d	0.15562506
19	0xba6a1b44	-0.00089304545
20	0x3c8a0576	0.016848307
21	0x3e1a976f	0.1509683
22	0xbcf57b14	-0.029965915
23	0x3e3273be	0.17426965
24	0x3e2f1cc3	0.17100815
25	0xbd5888af	-0.052864727
26	0xbdeca6c0	-0.115552425
27	0xbd57b0f3	-0.052658986
28	0xbd7ce38a	-0.061740436
29	0xbd8af75d	-0.06785462
30	0xbe01f49a	-0.12690964
31	0x3dea88c9	0.11451871
32	0x3e2b9d1a	0.16759148
33	0x3e75eb47	0.24015532
34	0xbd940d3c	-0.07229087
35	0x3d91615c	0.07098648
36	0xbddc2233	-0.107487105
37	0xbe353755	-0.17696889
38	0xbd6b9c90	-0.057522357
39	0xbdded980	-0.108813286
40	0xbdf89ffa	-0.12139888
41	0xbbacaf4d	-0.005269921
42	0x3e536f8e	0.20648023
43	0xbc9c7f42	-0.01910365
44	0x3d8a31c6	0.06747775
45	0xbc85faa6	-0.01635487
46	0x3d96953b	0.07352682
47	0x3d90cd43	0.070704006
48	0x3ddbf6a7	0.107404046
49	0x3d233e83	0.039854538
50	0xbcc50b6f	-0.024053304
51	0xbcc11711	-0.02357057
52	0x3d91915a	0.07107802
53	0xbc8102f3	-0.015748477
54	0xbd0450c6	-0.032303594
55	0xbd9511af	-0.072787635
56	0xbdf14b86	-0.11781983
57	0x3da6ea2d	0.08150134
58	0xbd3f421f	-0.046693917
59	0x3d931a07	0.07182699
60	0x3e2f776a	0.17135397
61	0x3dea76a8	0.11448413
62	0x3e29faee	0.16599628
63	0xbe3ba678	-0.18325222

dense1.weight f4 [10, 3136]
0	0xbc14c918	-0.009081148
1	0x3cb0f40f	0.021600751
2	0xbb53ec09	-0.0032336733
3	0x3cfbd0c8	0.030739203
4	0x3c3a36dd	0.0113656195
5	0xbc1ec28b	-0.009689937
6	0x3c35164b	0.011052678
7	0xbca76e9b	-0.020438483
8	0xbb877e67	-0.0041349414
9	0xbd07b795	-0.03313406
10	0xbbbc57f5	-0.00574779
11	0xbbdd153f	-0.0067469175
12	0xbb8fc1af	-0.0043871026
13	0x3c73cbdd	0.014880148
14	0xbb9c5a41	-0.0047715013
15	0xbd00507f	-0.031326767
16	0xbbeb084a	-0.007172619
17	0xbcd5df8c	-0.026107572
18	0xbd82fa56	-0.06395404
19	0x3cebf19b	0.02880173
20	0xba94aad2	-0.0011342412
21	0xbc83e759	-0.016101526
22	0xbde77b88	-0.113028586
23	0xbc2f11e4	-0.010685418
24	0x3db0469a	0.08607216
25	0xbcb811f9	-0.022469508
26	0xbb31ef88	-0.0027150828
27	0x3bc58069	0.0060272706
28	0xbc69cc5a	-0.014269913
29	0xbd8efd3d	-0.06981895
30	0xbcca703c	-0.02471172
31	0x3cf9fdbe	0.030516502
32	0xbc8c8956	-0.01715533
33	0x3bb59702	0.005541683
34	0x3a766f52	0.00094007433
35	0x3c4a63c6	0.012352889
36	0xbcdf9e60	-0.027297199
37	0x3cd189d4	0.025578417
38	0x3cda918b	0.026680728
39	0xbc1a37e4	-0.009412739
40	0x39c1db66	0.00036975293
41	0xbcd81d62	-0.026381198
42	0x3b090046	0.0020904704
43	0x3cbf8099	0.02337675
44	0x3c7ffa8c	0.0156237
45	0xbc858ab5	-0.016301492
46	0xbd102584	-0.035192028
47	0xbc881273	-0.01661036
48	0xbc50d45c	-0.012745943
49	0x38d8d5b8	0.00010339491
50	0x3c26aa7b	0.010172482
51	0xbc0ca295	-0.008583684
52	0x3cfada45	0.030621657
53	0x3d36e29f	0.044649716
54	0x3cd045ec	0.025423966
55	0x3cdeeaca	0.027211566
56	0x3c10178c	0.0087946765
57	0xbc9d6989	-0.019215362
58	0xbcabf0d3	-0.020988857
59	0x3d26dc12	0.04073722
60	0xbc68cd86	-0.014209157
61	0x3c697a4e	0.014250351
62	0x3bfeecf8	0.0077797137
63	0x3cc02a73	0.023457741
64	0x3c9bf7a8	0.01903899
65	0xbcc25c87	-0.023725761
66	0xbd37c288	-0.044863254
67	0xbd402b13	-0.04691608
68	0xbc3eae94	-0.011638302
69	0x3d0f2510	0.034947455
70	0x3bc3a2db	0.0059703416
71	0xbccdf266	-0.025139999
72	0xbd9c43d2	-0.07630123
73	0xbd3869ca	-0.045022763
74	0xbdd14fa0	-0.102202654
75	0xbcf2ffce	-0.029662993
76	0xbb7a633d	-0.0038206123
77	0x3cda7241	0.026665809
78	0xbd0d09a8	-0.034433037
79	0xbd7c757f	-0.06163549
80	0xbd6e688e	-0.05820518
81	0xb9e6324d	-0.00043906496
82	0x3d4e75ae	0.050405197
83	0x3d253bb8	0.040340155
84	0x3cfae588	0.030627027
85	0xbcbde5c1	-0.023180844
86	0x3d1bb10e	0.03801065
87	0x3d0ff13a	0.03514216
88	0x3c7351af	0.014851018
89	0x3cff595e	0.031170543
90	0x3c8c60ea	0.017136056
91	0xbc15878c	-0.009126555
92	0x3d153998	0.03643188
93	0x3d36bd94	0.04461439
94	0x3c515357	0.012776217
95	0x3d22a185	0.03970482
96	0x3ca857fe	0.02054977
97	0xbbf0fe5f	-0.007354542
98	0xbb5b9a33	-0.0033508658
99	0x3d003d9f	0.031308766
100	0xbc2fd4fd	-0.010731933
101	0x3be437af	0.006964646
102	0x3c9845ef	0.018588034
103	0x3cd59143	0.026070243
104	0x3ba5251b	0.0050398237
105	0xbb9f0d6d	-0.0048538954
106	0x3cd9baf9	0.026578413
107	0xbc4dd95a	-0.012564028
108	0xbbf45594	-0.007456491
109	0xbd038968	-0.032113463
110	0x3c902a83	0.017598396
111	0x3ab3025c	0.0013657319
112	0xbc94a290	-0.018143922
113	0xbb95d8e2	-0.0045729736
114	0xbc4f03c2	-0.012635173
115	0xbb1cfec2	-0.0023955558
116	0x3cfcbd93	0.030852115
117	0x3cd8f947	0.026486052
118	0x3b2a614c	0.0025997935
119	0xbbba08cd	-0.0056773187
120	0x3d1e2d71	0.038617555
121	0x3cea078d	0.028568054
122	0xbdbe66d8	-0.0929696
123	0x3caf098d	0.021366859
124	0x3cc73c56	0.024320763
125	0xbce78783	-0.02826286
126	0x3bd7aa4c	0.0065815803
127	0xbc47ad33	-0.01218729
128	0x3c8a9ecc	0.016921423
129	0xbbe5561e	-0.0069987914
130	0x3d68fda7	0.056882527
131	0x3bb7d814	0.0056104753
132	0xbbcd3662	-0.0062625865
133	0x3ab5b75c	0.001386385
134	0xbc3eb96a	-0.011640886
135	0xbb8b9612	-0.004259833
136	0xbcd32e04	-0.025778778
137	0xbd22d415	-0.03975304
138	0xbc495d43	-0.012290302
139	0xbc98440b	-0.018587133
140	0x3c9ba5f8	0.019000039
141	0x3a85fc13	0.0010222219
142	0xbd4a846c	-0.049442694
143	0xbb82ea67	-0.003995228
144	0x3c0738cd	0.008253288
145	0xbc87b47e	-0.016565558
146	0x3ad85b0e	0.0016506629
147	0x3cee572f	0.029094307
148	0x3c7035f7	0.014661304
149	0x3cc89b8a	0.02448823
150	0xbc94f58f	-0.018183498
151	0xbd1c300a	-0.03813175
152	0x3bfb7a1c	0.0076744687
153	0xbc289a36	-0.010290673
154	0x3d12c121	0.035828713
155	0x3d57f122	0.052720197
156	0x3a15a46a	0.00057083985
157	0x3bf7057b	0.007538495
158	0x3d17c5be	0.037053816
159	0xbbd01b97	-0.006350945
160	0x3c8110bf	0.015755055
161	0x3ca3fd2b	0.02001818
162	0x3c11706c	0.008876901
163	0xbc0238e2	-0.007948132
164	0xbbdad6a9	-0.0066784215
165	0x3d944abf	0.07240819
166	0xbd6a45e1	-0.057195548
167	0xbd64bb07	-0.055842426
168	0xbc2d1628	-0.0105643645
169	0xbdb1fef8	-0.086912096
170	0xbd1c56d7	-0.038168754
171	0xbe11bdfb	-0.14232628
172	0xbd93288b	-0.07185467
173	0xbdb992f8	-0.09061235
174	0xbb707a79	-0.0036694093
175	0x3c337374	0.010952819
176	0xbdedccb5	-0.116113104
177	0xbd92d2c9	-0.0716911
178	0x3caf46df	0.021396099
179	0x3cac3785	0.021022568
180	0xbdb58367	-0.08862954
181	0xbdf9fdb6	-0.12206595
182	0x3bac4285	0.005256953
183	0xbca57600	-0.020197868
184	0xbd367d70	-0.04455322
185	0x3d5c9936	0.05385705
186	0x3c60bad1	0.0137164155
187	0xbd96a9c6	-0.073566005
188	0xbcc2b4ac	-0.023767792
189	0x3b9984b0	0.004685007
190	0x3cef6615	0.029223481
191	0x3d0fb84e	0.035087876
192	0x3d0f6646	0.035009645
193	0x3c367ede	0.011138646
194	0x3ceb929a	0.028756429
195	0x3ca28a49	0.01984133
196	0x3ca802e9	0.0205092
197	0xba6f2882	-0.00091231626
198	0xbc7a70fe	-0.0152857285
199	0x3c35f234	0.011105109
200	0x3c1ae366	0.00945363
201	0xb9a04438	-0.00030568405
202	0x3c4b3baa	0.012404362
203	0x3b80c6b2	0.0039299363
204	0x3c9faffe	0.0194931
205	0x3c589313	0.013218659
206	0x3d1ba987	0.03800347
207	0x3d2881ad	0.041139293
208	0x3c07a8b5	0.008279969
209	0x3d2a3cd5	0.04156192
210	0x3cf6df9f	0.030135928
211	0x3c6f9556	0.014623007
212	0x3b8258a2	0.003977851
213	0xbd28981c	-0.041160688
214	0xbd9875cb	-0.07444342
215	0xbc420399	-0.011841678
216	0x3d1878a4	0.037224427
217	0x3b394de9	0.0028275198
218	0xbce3ae77	-0.027793152
219	0xbd2fa1d9	-0.04287896
220	0xbd53c6d4	-0.05170329
221	0xbd362f9b	-0.044478994
222	0xbcea7813	-0.028621709
223	0xbc887c31	-0.016660782
224	0x3cd3568c	0.025798105
225	0xbd2901ca	-0.04126147
226	0xbc81fa1a	-0.015866328
227	0xbc73482b	-0.014848749
228	0xbc4a8e38	-0.012363009
229	0xbc057545	-0.008145635
230	0xbc4ede8a	-0.0126263
231	0x3cb85496	0.022501271
232	0x3be4abd6	0.0069784923
233	0x3b08e258	0.0020886865
234	0x3b9126e1	0.0044296836
235	0x3c50b814	0.0127392
236	0x3b00b5f3	0.00196397
237	0x3cd79d55	0.026320139
238	0x3c9c6202	0.019089703
239	0x3c902344	0.017594941
240	0x3b6da403	0.0036261089
241	0x3c70b1cd	0.0146908285
242	0x3d17cf87	0.037063148
243	0x3c27764b	0.010221074
244	0x3c86d5cd	0.01645937
245	0xbc9f43e5	-0.019441554
246	0x3c1d5cf9	0.009604686
247	0xbcb24a28	-0.021763876
248	0xbb8e2236	-0.0043375744
249	0xbc1a9f1b	-0.009437348
250	0x3b47f7a2	0.003051259
251	0xbcef3738	-0.029201135
252	0xbc9d6405	-0.019212732
253	0xbc9832ef	-0.018578975
254	0xbccafa2c	-0.024777494
255	0xba6e3bcd	-0.00090878905

dense1.bias f4 [10]
0	0xbaf91895	-0.0019004518
1	0x3d3345a1	0.043767575
2	0xbbd359d5	-0.006449918
3	0xbcb3bf9a	-0.021941949
4	0xbbe0939b	-0.0068535334
5	0x3ab25ea8	0.0013608532
6	0x3a70a9d0	0.00091805775
7	0x3c5a7f13	0.013335961
8	0xbc9c1375	-0.019052247
9	0x3bd93bc6	0.00662944
